…
sorFlow documentation page for more information.\r\nNext, summary function can be used to visualize how the pre-trained model looks like.\r\n\r\n\r\nsummary(conv_base)\r\n\r\n\r\nModel: \"vgg16\"\r\n______________________________________________________________________\r\nLayer (type)                   Output Shape                Param #    \r\n======================================================================\r\ninput_1 (InputLayer)           [(None, 224, 224, 3)]       0          \r\n______________________________________________________________________\r\nblock1_conv1 (Conv2D)          (None, 224, 224, 64)        1792       \r\n______________________________________________________________________\r\nblock1_conv2 (Conv2D)          (None, 224, 224, 64)        36928      \r\n______________________________________________________________________\r\nblock1_pool (MaxPooling2D)     (None, 112, 112, 64)        0          \r\n______________________________________________________________________\r\nblock2_conv1 (Conv2D)          (None, 112, 112, 128)       73856      \r\n______________________________________________________________________\r\nblock2_conv2 (Conv2D)          (None, 112, 112, 128)       147584     \r\n______________________________________________________________________\r\nblock2_pool (MaxPooling2D)     (None, 56, 56, 128)         0          \r\n______________________________________________________________________\r\nblock3_conv1 (Conv2D)          (None, 56, 56, 256)         295168     \r\n______________________________________________________________________\r\nblock3_conv2 (Conv2D)          (None, 56, 56, 256)         590080     \r\n______________________________________________________________________\r\nblock3_conv3 (Conv2D)          (None, 56, 56, 256)         590080     \r\n______________________________________________________________________\r\nblock3_pool (MaxPooling2D)     (None, 28, 28, 256)         0          \r\n______________________________________________________________________\r\nblock4_conv1 (Conv2D)          (None, 28, 28, 512)         1180160    \r\n______________________________________________________________________\r\nblock4_conv2 (Conv2D)          (None, 28, 28, 512)         2359808    \r\n______________________________________________________________________\r\nblock4_conv3 (Conv2D)          (None, 28, 28, 512)         2359808    \r\n______________________________________________________________________\r\nblock4_pool (MaxPooling2D)     (None, 14, 14, 512)         0          \r\n______________________________________________________________________\r\nblock5_conv1 (Conv2D)          (None, 14, 14, 512)         2359808    \r\n______________________________________________________________________\r\nblock5_conv2 (Conv2D)          (None, 14, 14, 512)         2359808    \r\n______________________________________________________________________\r\nblock5_conv3 (Conv2D)          (None, 14, 14, 512)         2359808    \r\n______________________________________________________________________\r\nblock5_pool (MaxPooling2D)     (None, 7, 7, 512)           0          \r\n======================================================================\r\nTotal params: 14,714,688\r\nTrainable params: 14,714,688\r\nNon-trainable params: 0\r\n______________________________________________________________________\r\n\r\nAdd on Classifier Layer\r\nNext, I will add on the classifier layer as discussed in the earlier post. As this is a multi-class classification probl
…
